…
[ INFO : 2022-11-05 13:59:33,655 ] - train data num: 1092009, spk num: 5994
[ INFO : 2022-11-05 13:59:33,661 ] - <== Dataloaders ==>
[ INFO : 2022-11-05 13:59:33,661 ] - train dataloaders created
[ INFO : 2022-11-05 13:59:33,661 ] - loader size: 8531
[ INFO : 2022-11-05 13:59:33,661 ] - <== Model ==>
[ INFO : 2022-11-05 13:59:33,795 ] - speaker_model size: 6634336
[ INFO : 2022-11-05 13:59:33,796 ] - Train model from scratch ...
[ INFO : 2022-11-05 13:59:33,823 ] - ResNet(
[ INFO : 2022-11-05 13:59:33,823 ] -   (Spec): Spectrogram()
[ INFO : 2022-11-05 13:59:33,823 ] -   (Mel_scale): MelScale()
[ INFO : 2022-11-05 13:59:33,824 ] -   (conv1): Conv2d(1, 32, kernel_size=(3, 3), stride=(1, 1), padding=(1, 1), bias=False)
[ INFO : 2022-11-05 13:59:33,824 ] -   (bn1): BatchNorm2d(32, eps=1e-05, momentum=0.1, affine=True, track_running_stats=True)
[ INFO : 2022-11-05 13:59:33,824 ] -   (layer1): Sequential(
[ INFO : 2022-11-05 13:59:33,824 ] -     (0): BasicBlock(
[ INFO : 2022-11-05 13:59:33,824 ] -       (conv1): Conv2d(32, 32, kernel_size=(3, 3), stride=(1, 1), padding=(1, 1), bias=False)
[ INFO : 2022-11-05 13:59:33,824 ] -       (bn1): BatchNorm2d(32, eps=1e-05, momentum=0.1, affine=True, track_running_stats=True)
[ INFO : 2022-11-05 13:59:33,824 ] -       (conv2): Conv2d(32, 32, kernel_size=(3, 3), stride=(1, 1), padding=(1, 1), bias=False)
[ INFO : 2022-11-05 13:59:33,824 ] -       (bn2): BatchNorm2d(32, eps=1e-05, momentum=0.1, affine=True, track_running_stats=True)
[ INFO : 2022-11-05 13:59:33,824 ] -       (shortcut): Sequential()
[ INFO : 2022-11-05 13:59:33,824 ] -     )
[ INFO : 2022-11-05 13:59:33,824 ] -     (1): BasicBlock(
[ INFO : 2022-11-05 13:59:33,824 ] -       (conv1): Conv2d(32, 32, kernel_size=(3, 3), stride=(1, 1), padding=(1, 1), bias=False)
[ INFO : 2022-11-05 13:59:33,824 ] -       (bn1): BatchNorm2d(32, eps=1e-05, momentum=0.1, affine=True, track_running_stats=True)
[ INFO : 2022-11-05 13:59:33,824 ] -       (conv2): Conv2d(32, 32, kernel_size=(3, 3), stride=(1, 1), padding=(1, 1), bias=False)
[ INFO : 2022-11-05 13:59:33,824 ] -       (bn2): BatchNorm2d(32, eps=1e-05, momentum=0.1, affine=True, track_running_stats=True)
[ INFO : 2022-11-05 13:59:33,824 ] -       (shortcut): Sequential()
[ INFO : 2022-11-05 13:59:33,824 ] -     )
[ INFO : 2022-11-05 13:59:33,824 ] -     (2): BasicBlock(
[ INFO : 2022-11-05 13:59:33,824 ] -       (conv1): Conv2d(32, 32, kernel_size=(3, 3), stride=(1, 1), padding=(1, 1), bias=False)
[ INFO : 2022-11-05 13:59:33,824 ] -       (bn1): BatchNorm2d(32, eps=1e-05, momentum=0.1, affine=True, track_running_stats=True)
[ INFO : 2022-11-05 13:59:33,824 ] -       (conv2): Conv2d(32, 32, kernel_size=(3, 3), stride=(1, 1), padding=(1, 1), bias=False)
[ INFO : 2022-11-05 13:59:33,824 ] -       (bn2): BatchNorm2d(32, eps=1e-05, momentum=0.1, affine=True, track_running_stats=True)
[ INFO : 2022-11-05 13:59:33,824 ] -       (shortcut): Sequential()
[ INFO : 2022-11-05 13:59:33,824 ] -     )
[ INFO : 2022-11-05 13:59:33,824 ] -   )
[ INFO : 2022-11-05 13:59:33,824 ] -   (layer2): Sequential(
[ INFO : 2022-11-05 13:59:33,824 ] -     (0): BasicBlock(
[ INFO : 2022-11-05 13:59:33,824 ] -       (conv1): Conv2d(32, 64, kernel_size=(3, 3), stride=(2, 2), padding=(1, 1), bias=False)
[ INFO : 2022-11-05 13:59:33,824 ] -       (bn1): BatchNorm2d(64, eps=1e-05, momentum=0.1, affine=True, track_running_stats=True)
[ INFO : 2022-11-05 13:59:33,824 ] -       (conv2): Conv2d(64, 64, kernel_size=(3, 3), stride=(1, 1), padding=(1, 1), bias=False)
[ INFO : 2022-11-05 13:59:33,824 ] -       (bn2): BatchNorm2d(64, eps=1e-05, momentum=0.1, affine=True, track_running_stats=True)
[ INFO : 2022-11-05 13:59:33,824 ] -       (shortcut): Sequential(
[ INFO : 2022-11-05 13:59:33,824 ] -         (0): Conv2d(32, 64, kernel_size=(1, 1), stride=(2, 2), bias=False)
[ INFO : 2022-11-05 13:59:33,824 ] -         (1): BatchNorm2d(64, eps=1e-05, momentum=0.1, affine=True, track_running_stats=True)
[ INFO : 2022-11-05 13:59:33,824 ] -       )
[ INFO : 2022-11-05 13:59:33,824 ] -     )
[ INFO : 2022-11-05 13:59:33,825 ] -     (1): BasicBlock(
[ INFO : 2022-11-05 13:59:33,825 ] -       (conv1): Conv2d(64, 64, kernel_size=(3, 3), stride=(1, 1), padding=(1, 1), bias=False)
[ INFO : 2022-11-05 13:59:33,825 ] -       (bn1): BatchNorm2d(64, eps=1e-05, momentum=0.1, affine=True, track_running_stats=True)
[ INFO : 2022-11-05 13:59:33,825 ] -       (conv2): Conv2d(64, 64, kernel_size=(3, 3), stride=(1, 1), padding=(1, 1), bias=False)
[ INFO : 2022-11-05 13:59:33,825 ] -       (bn2): BatchNorm2d(64, eps=1e-05, momentum=0.1, affine=True, track_running_stats=True)
[ INFO : 2022-11-05 13:59:33,825 ] -       (shortcut): Sequential()
[ INFO : 2022-11-05 13:59:33,825 ] -     )
[ INFO : 2022-11-05 13:59:33,825 ] -     (2): BasicBlock(
[ INFO : 2022-11-05 13:59:33,825 ] -       (conv1): Conv2d(64, 64, kernel_size=(3, 3), stride=(1, 1), padding=(1, 1), bias=False)
[ INFO : 2022-11-05 13:59:33,825 ] -       (bn1): BatchNorm2d(64, eps=1e-05, momentum=0.1, affine=True, track_running_stats=True)
[ INFO : 2022-11-05 13:59:33,825 ] -       (conv2): Conv2d(64, 64, kernel_size=(3, 3), stride=(1, 1), padding=(1, 1), bias=False)
[ INFO : 2022-11-05 13:59:33,825 ] -       (bn2): BatchNorm2d(64, eps=1e-05, momentum=0.1, affine=True, track_running_stats=True)
[ INFO : 2022-11-05 13:59:33,825 ] -       (shortcut): Sequential()
[ INFO : 2022-11-05 13:59:33,825 ] -     )
[ INFO : 2022-11-05 13:59:33,825 ] -     (3): BasicBlock(
[ INFO : 2022-11-05 13:59:33,825 ] -       (conv1): Conv2d(64, 64, kernel_size=(3, 3), stride=(1, 1), padding=(1, 1), bias=False)
[ INFO : 2022-11-05 13:59:33,825 ] -       (bn1): BatchNorm2d(64, eps=1e-05, momentum=0.1, affine=True, track_running_stats=True)
[ INFO : 2022-11-05 13:59:33,825 ] -       (conv2): Conv2d(64, 64, kernel_size=(3, 3), stride=(1, 1), padding=(1, 1), bias=False)
[ INFO : 2022-11-05 13:59:33,825 ] -       (bn2): BatchNorm2d(64, eps=1e-05, momentum=0.1, affine=True, track_running_stats=True)
[ INFO : 2022-11-05 13:59:33,825 ] -       (shortcut): Sequential()
[ INFO : 2022-11-05 13:59:33,825 ] -     )
[ INFO : 2022-11-05 13:59:33,825 ] -   )
[ INFO : 2022-11-05 13:59:33,825 ] -   (layer3): Sequential(
[ INFO : 2022-11-05 13:59:33,825 ] -     (0): BasicBlock(
[ INFO : 2022-11-05 13:59:33,825 ] -       (conv1): Conv2d(64, 128, kernel_size=(3, 3), stride=(2, 2), padding=(1, 1), bias=False)
[ INFO : 2022-11-05 13:59:33,825 ] -       (bn1): BatchNorm2d(128, eps=1e-05, momentum=0.1, affine=True, track_running_stats=True)
[ INFO : 2022-11-05 13:59:33,825 ] -       (conv2): Conv2d(128, 128, kernel_size=(3, 3), stride=(1, 1), padding=(1, 1), bias=False)
[ INFO : 2022-11-05 13:59:33,825 ] -       (bn2): BatchNorm2d(128, eps=1e-05, momentum=0.1, affine=True, track_running_stats=True)
[ INFO : 2022-11-05 13:59:33,825 ] -       (shortcut): Sequential(
[ INFO : 2022-11-05 13:59:33,825 ] -         (0): Conv2d(64, 128, kernel_size=(1, 1), stride=(2, 2), bias=False)
[ INFO : 2022-11-05 13:59:33,825 ] -         (1): BatchNorm2d(128, eps=1e-05, momentum=0.1, affine=True, track_running_stats=True)
[ INFO : 2022-11-05 13:59:33,825 ] -       )
[ INFO : 2022-11-05 13:59:33,825 ] -     )
[ INFO : 2022-11-05 13:59:33,825 ] -     (1): BasicBlock(
[ INFO : 2022-11-05 13:59:33,825 ] -       (conv1): Conv2d(128, 128, kernel_size=(3, 3), stride=(1, 1), padding=(1, 1), bias=False)
[ INFO : 2022-11-05 13:59:33,825 ] -       (bn1): BatchNorm2d(128, eps=1e-05, momentum=0.1, affine=True, track_running_stats=True)
[ INFO : 2022-11-05 13:59:33,825 ] -       (conv2): Conv2d(128, 128, kernel_size=(3, 3), stride=(1, 1), padding=(1, 1), bias=False)
[ INFO : 2022-11-05 13:59:33,825 ] -       (bn2): BatchNorm2d(128, eps=1e-05, momentum=0.1, affine=True, track_running_stats=True)
[ INFO : 2022-11-05 13:59:33,826 ] -       (shortcut): Sequential()
[ INFO : 2022-11-05 13:59:33,826 ] -     )
[ INFO : 2022-11-05 13:59:33,826 ] -     (2): BasicBlock(
[ INFO : 2022-11-05 13:59:33,826 ] -       (conv1): Conv2d(128, 128, kernel_size=(3, 3), stride=(1, 1), padding=(1, 1), bias=False)
[ INFO : 2022-11-05 13:59:33,826 ] -       (bn1): BatchNorm2d(128, eps=1e-05, momentum=0.1, affine=True, track_running_stats=True)
[ INFO : 2022-11-05 13:59:33,826 ] -       (conv2): Conv2d(128, 128, kernel_size=(3, 3), stride=(1, 1), padding=(1, 1), bias=False)
[ INFO : 2022-11-05 13:59:33,826 ] -       (bn2): BatchNorm2d(128, eps=1e-05, momentum=0.1, affine=True, track_running_stats=True)
[ INFO : 2022-11-05 13:59:33,826 ] -       (shortcut): Sequential()
[ INFO : 2022-11-05 13:59:33,826 ] -     )
[ INFO : 2022-11-05 13:59:33,826 ] -     (3): BasicBlock(
[ INFO : 2022-11-05 13:59:33,826 ] -       (conv1): Conv2d(128, 128, kernel_size=(3, 3), stride=(1, 1), padding=(1, 1), bias=False)
[ INFO : 2022-11-05 13:59:33,826 ] -       (bn1): BatchNorm2d(128, eps=1e-05, momentum=0.1, affine=True, track_running_stats=True)
[ INFO : 2022-11-05 13:59:33,826 ] -       (conv2): Conv2d(128, 128, kernel_size=(3, 3), stride=(1, 1), padding=(1, 1), bias=False)
[ INFO : 2022-11-05 13:59:33,826 ] -       (bn2): BatchNorm2d(128, eps=1e-05, momentum=0.1, affine=True, track_running_stats=True)
[ INFO : 2022-11-05 13:59:33,826 ] -       (shortcut): Sequential()
[ INFO : 2022-11-05 13:59:33,826 ] -     )
[ INFO : 2022-11-05 13:59:33,826 ] -     (4): BasicBlock(
[ INFO : 2022-11-05 13:59:33,826 ] -       (conv1): Conv2d(128, 128, kernel_size=(3, 3), stride=(1, 1), padding=(1, 1), bias=False)
[ INFO : 2022-11-05 13:59:33,826 ] -       (bn1): BatchNorm2d(128, eps=1e-05, momentum=0.1, affine=True, track_running_stats=True)
[ INFO : 2022-11-05 13:59:33,826 ] -       (conv2): Conv2d(128, 128, kernel_size=(3, 3), stride=(1, 1), padding=(1, 1), bias=False)
[ INFO : 2022-11-05 13:59:33,826 ] -       (bn2): BatchNorm2d(128, eps=1e-05, momentum=0.1, affine=True, track_running_stats=True)
[ INFO : 2022-11-05 13:59:33,826 ] -       (shortcut): Sequential()
[ INFO : 2022-11-05 13:59:33,826 ] -     )
[ INFO : 2022-11-05 13:59:33,826 ] -     (5): BasicBlock(
[ INFO : 2022-11-05 13:59:33,826 ] -       (conv1): Conv2d(128, 128, kernel_size=(3, 3), stride=(1, 1), padding=(1, 1), bias=False)
[ INFO : 2022-11-05 13:59:33,826 ] -       (bn1): BatchNorm2d(128, eps=1e-05, momentum=0.1, affine=True, track_running_stats=True)
[ INFO : 2022-11-05 13:59:33,826 ] -       (conv2): Conv2d(128, 128, kernel_size=(3, 3), stride=(1, 1), padding=(1, 1), bias=False)
[ INFO : 2022-11-05 13:59:33,826 ] -       (bn2): BatchNorm2d(128, eps=1e-05, momentum=0.1, affine=True, track_running_stats=True)
[ INFO : 2022-11-05 13:59:33,826 ] -       (shortcut): Sequential()
[ INFO : 2022-11-05 13:59:33,826 ] -     )
[ INFO : 2022-11-05 13:59:33,826 ] -   )
[ INFO : 2022-11-05 13:59:33,826 ] -   (layer4): Sequential(
[ INFO : 2022-11-05 13:59:33,826 ] -     (0): BasicBlock(
[ INFO : 2022-11-05 13:59:33,826 ] -       (conv1): Conv2d(128, 256, kernel_size=(3, 3), stride=(2, 2), padding=(1, 1), bias=False)
[ INFO : 2022-11-05 13:59:33,826 ] -       (bn1): BatchNorm2d(256, eps=1e-05, momentum=0.1, affine=True, track_running_stats=True)
[ INFO : 2022-11-05 13:59:33,826 ] -       (conv2): Conv2d(256, 256, kernel_size=(3, 3), stride=(1, 1), padding=(1, 1), bias=False)
[ INFO : 2022-11-05 13:59:33,826 ] -       (bn2): BatchNorm2d(256, eps=1e-05, momentum=0.1, affine=True, track_running_stats=True)
[ INFO : 2022-11-05 13:59:33,826 ] -       (shortcut): Sequential(
[ INFO : 2022-11-05 13:59:33,827 ] -         (0): Conv2d(128, 256, kernel_size=(1, 1), stride=(2, 2), bias=False)
[ INFO : 2022-11-05 13:59:33,827 ] -         (1): BatchNorm2d(256, eps=1e-05, momentum=0.1, affine=True, track_running_stats=True)
[ INFO : 2022-11-05 13:59:33,827 ] -       )
[ INFO : 2022-11-05 13:59:33,827 ] -     )
[ INFO : 2022-11-05 13:59:33,827 ] -     (1): BasicBlock(
[ INFO : 2022-11-05 13:59:33,827 ] -       (conv1): Conv2d(256, 256, kernel_size=(3, 3), stride=(1, 1), padding=(1, 1), bias=False)
[ INFO : 2022-11-05 13:59:33,827 ] -       (bn1): BatchNorm2d(256, eps=1e-05, momentum=0.1, affine=True, track_running_stats=True)
[ INFO : 2022-11-05 13:59:33,827 ] -       (conv2): Conv2d(256, 256, kernel_size=(3, 3), stride=(1, 1), padding=(1, 1), bias=False)
[ INFO : 2022-11-05 13:59:33,827 ] -       (bn2): BatchNorm2d(256, eps=1e-05, momentum=0.1, affine=True, track_running_stats=True)
[ INFO : 2022-11-05 13:59:33,827 ] -       (shortcut): Sequential()
[ INFO : 2022-11-05 13:59:33,827 ] -     )
[ INFO : 2022-11-05 13:59:33,827 ] -     (2): BasicBlock(
[ INFO : 2022-11-05 13:59:33,827 ] -       (conv1): Conv2d(256, 256, kernel_size=(3, 3), stride=(1, 1), padding=(1, 1), bias=False)
[ INFO : 2022-11-05 13:59:33,827 ] -       (bn1): BatchNorm2d(256, eps=1e-05, momentum=0.1, affine=True, track_running_stats=True)
[ INFO : 2022-11-05 13:59:33,827 ] -       (conv2): Conv2d(256, 256, kernel_size=(3, 3), stride=(1, 1), padding=(1, 1), bias=False)
[ INFO : 2022-11-05 13:59:33,827 ] -       (bn2): BatchNorm2d(256, eps=1e-05, momentum=0.1, affine=True, track_running_stats=True)
[ INFO : 2022-11-05 13:59:33,827 ] -       (shortcut): Sequential()
[ INFO : 2022-11-05 13:59:33,827 ] -     )
[ INFO : 2022-11-05 13:59:33,827 ] -   )
[ INFO : 2022-11-05 13:59:33,827 ] -   (pool): TSTP()
[ INFO : 2022-11-05 13:59:33,827 ] -   (seg_1): Linear(in_features=5120, out_features=256, bias=True)
[ INFO : 2022-11-05 13:59:33,827 ] -   (seg_bn_1): Identity()
[ INFO : 2022-11-05 13:59:33,827 ] -   (seg_2): Identity()
[ INFO : 2022-11-05 13:59:33,827 ] -   (projection): ArcMarginProduct(
[ INFO : 2022-11-05 13:59:33,827 ] -     in_features=256, out_features=17982, scale=32.0,
[ INFO : 2022-11-05 13:59:33,827 ] -                       margin=0.0, easy_margin=False
…
